…
2021-04-24 14:04:20,561 [WARNING] tensorflow: From /usr/local/lib/python3.6/dist-packages/keras/backend/tensorflow_backend.py:1834: The name tf.nn.fused_batch_norm is deprecated. Please use tf.compat.v1.nn.fused_batch_norm instead.

2021-04-24 14:11:35,105 [INFO] iva.faster_rcnn.models.model_builder: Validation model built successfully!
__________________________________________________________________________________________________
Layer (type)                    Output Shape         Param #     Connected to                     
==================================================================================================
input_image (InputLayer)        (None, 3, 512, 512)  0                                            
__________________________________________________________________________________________________
conv1 (Conv2D)                  (None, 64, 256, 256) 9408        input_image[0][0]                
__________________________________________________________________________________________________
bn_conv1 (BatchNormalization)   (None, 64, 256, 256) 256         conv1[0][0]                      
__________________________________________________________________________________________________
activation_1 (Activation)       (None, 64, 256, 256) 0           bn_conv1[0][0]                   
__________________________________________________________________________________________________
block_1a_conv_1 (Conv2D)        (None, 64, 128, 128) 36864       activation_1[0][0]               
__________________________________________________________________________________________________
block_1a_bn_1 (BatchNormalizati (None, 64, 128, 128) 256         block_1a_conv_1[0][0]            
__________________________________________________________________________________________________
block_1a_relu_1 (Activation)    (None, 64, 128, 128) 0           block_1a_bn_1[0][0]              
__________________________________________________________________________________________________
block_1a_conv_2 (Conv2D)        (None, 64, 128, 128) 36864       block_1a_relu_1[0][0]            
__________________________________________________________________________________________________
block_1a_conv_shortcut (Conv2D) (None, 64, 128, 128) 4096        activation_1[0][0]               
__________________________________________________________________________________________________
block_1a_bn_2 (BatchNormalizati (None, 64, 128, 128) 256         block_1a_conv_2[0][0]            
__________________________________________________________________________________________________
block_1a_bn_shortcut (BatchNorm (None, 64, 128, 128) 256         block_1a_conv_shortcut[0][0]     
__________________________________________________________________________________________________
add_1 (Add)                     (None, 64, 128, 128) 0           block_1a_bn_2[0][0]              
                                                                 block_1a_bn_shortcut[0][0]       
__________________________________________________________________________________________________
block_1a_relu (Activation)      (None, 64, 128, 128) 0           add_1[0][0]                      
__________________________________________________________________________________________________
block_1b_conv_1 (Conv2D)        (None, 64, 128, 128) 36864       block_1a_relu[0][0]              
__________________________________________________________________________________________________
block_1b_bn_1 (BatchNormalizati (None, 64, 128, 128) 256         block_1b_conv_1[0][0]            
__________________________________________________________________________________________________
block_1b_relu_1 (Activation)    (None, 64, 128, 128) 0           block_1b_bn_1[0][0]              
__________________________________________________________________________________________________
block_1b_conv_2 (Conv2D)        (None, 64, 128, 128) 36864       block_1b_relu_1[0][0]            
__________________________________________________________________________________________________
block_1b_conv_shortcut (Conv2D) (None, 64, 128, 128) 4096        block_1a_relu[0][0]              
__________________________________________________________________________________________________
block_1b_bn_2 (BatchNormalizati (None, 64, 128, 128) 256         block_1b_conv_2[0][0]            
__________________________________________________________________________________________________
block_1b_bn_shortcut (BatchNorm (None, 64, 128, 128) 256         block_1b_conv_shortcut[0][0]     
__________________________________________________________________________________________________
add_2 (Add)                     (None, 64, 128, 128) 0           block_1b_bn_2[0][0]              
                                                                 block_1b_bn_shortcut[0][0]       
__________________________________________________________________________________________________
block_1b_relu (Activation)      (None, 64, 128, 128) 0           add_2[0][0]                      
__________________________________________________________________________________________________
block_1c_conv_1 (Conv2D)        (None, 64, 128, 128) 36864       block_1b_relu[0][0]              
__________________________________________________________________________________________________
block_1c_bn_1 (BatchNormalizati (None, 64, 128, 128) 256         block_1c_conv_1[0][0]            
__________________________________________________________________________________________________
block_1c_relu_1 (Activation)    (None, 64, 128, 128) 0           block_1c_bn_1[0][0]              
__________________________________________________________________________________________________
block_1c_conv_2 (Conv2D)        (None, 64, 128, 128) 36864       block_1c_relu_1[0][0]            
__________________________________________________________________________________________________
block_1c_conv_shortcut (Conv2D) (None, 64, 128, 128) 4096        block_1b_relu[0][0]              
__________________________________________________________________________________________________
block_1c_bn_2 (BatchNormalizati (None, 64, 128, 128) 256         block_1c_conv_2[0][0]            
__________________________________________________________________________________________________
block_1c_bn_shortcut (BatchNorm (None, 64, 128, 128) 256         block_1c_conv_shortcut[0][0]     
__________________________________________________________________________________________________
add_3 (Add)                     (None, 64, 128, 128) 0           block_1c_bn_2[0][0]              
                                                                 block_1c_bn_shortcut[0][0]       
__________________________________________________________________________________________________
block_1c_relu (Activation)      (None, 64, 128, 128) 0           add_3[0][0]                      
__________________________________________________________________________________________________
block_2a_conv_1 (Conv2D)        (None, 128, 64, 64)  73728       block_1c_relu[0][0]              
__________________________________________________________________________________________________
block_2a_bn_1 (BatchNormalizati (None, 128, 64, 64)  512         block_2a_conv_1[0][0]            
__________________________________________________________________________________________________
block_2a_relu_1 (Activation)    (None, 128, 64, 64)  0           block_2a_bn_1[0][0]              
__________________________________________________________________________________________________
block_2a_conv_2 (Conv2D)        (None, 128, 64, 64)  147456      block_2a_relu_1[0][0]            
__________________________________________________________________________________________________
block_2a_conv_shortcut (Conv2D) (None, 128, 64, 64)  8192        block_1c_relu[0][0]              
__________________________________________________________________________________________________
block_2a_bn_2 (BatchNormalizati (None, 128, 64, 64)  512         block_2a_conv_2[0][0]            
__________________________________________________________________________________________________
block_2a_bn_shortcut (BatchNorm (None, 128, 64, 64)  512         block_2a_conv_shortcut[0][0]     
__________________________________________________________________________________________________
add_4 (Add)                     (None, 128, 64, 64)  0           block_2a_bn_2[0][0]              
                                                                 block_2a_bn_shortcut[0][0]       
__________________________________________________________________________________________________
block_2a_relu (Activation)      (None, 128, 64, 64)  0           add_4[0][0]                      
__________________________________________________________________________________________________
block_2b_conv_1 (Conv2D)        (None, 128, 64, 64)  147456      block_2a_relu[0][0]              
__________________________________________________________________________________________________
block_2b_bn_1 (BatchNormalizati (None, 128, 64, 64)  512         block_2b_conv_1[0][0]            
__________________________________________________________________________________________________
block_2b_relu_1 (Activation)    (None, 128, 64, 64)  0           block_2b_bn_1[0][0]              
__________________________________________________________________________________________________
block_2b_conv_2 (Conv2D)        (None, 128, 64, 64)  147456      block_2b_relu_1[0][0]            
__________________________________________________________________________________________________
block_2b_conv_shortcut (Conv2D) (None, 128, 64, 64)  16384       block_2a_relu[0][0]              
__________________________________________________________________________________________________
block_2b_bn_2 (BatchNormalizati (None, 128, 64, 64)  512         block_2b_conv_2[0][0]            
__________________________________________________________________________________________________
block_2b_bn_shortcut (BatchNorm (None, 128, 64, 64)  512         block_2b_conv_shortcut[0][0]     
__________________________________________________________________________________________________
add_5 (Add)                     (None, 128, 64, 64)  0           block_2b_bn_2[0][0]              
                                                                 block_2b_bn_shortcut[0][0]       
__________________________________________________________________________________________________
block_2b_relu (Activation)      (None, 128, 64, 64)  0           add_5[0][0]                      
__________________________________________________________________________________________________
block_2c_conv_1 (Conv2D)        (None, 128, 64, 64)  147456      block_2b_relu[0][0]              
__________________________________________________________________________________________________
block_2c_bn_1 (BatchNormalizati (None, 128, 64, 64)  512         block_2c_conv_1[0][0]            
__________________________________________________________________________________________________
block_2c_relu_1 (Activation)    (None, 128, 64, 64)  0           block_2c_bn_1[0][0]              
__________________________________________________________________________________________________
block_2c_conv_2 (Conv2D)        (None, 128, 64, 64)  147456      block_2c_relu_1[0][0]            
__________________________________________________________________________________________________
block_2c_conv_shortcut (Conv2D) (None, 128, 64, 64)  16384       block_2b_relu[0][0]              
__________________________________________________________________________________________________
block_2c_bn_2 (BatchNormalizati (None, 128, 64, 64)  512         block_2c_conv_2[0][0]            
__________________________________________________________________________________________________
block_2c_bn_shortcut (BatchNorm (None, 128, 64, 64)  512         block_2c_conv_shortcut[0][0]     
__________________________________________________________________________________________________
add_6 (Add)                     (None, 128, 64, 64)  0           block_2c_bn_2[0][0]              
                                                                 block_2c_bn_shortcut[0][0]       
__________________________________________________________________________________________________
block_2c_relu (Activation)      (None, 128, 64, 64)  0           add_6[0][0]                      
__________________________________________________________________________________________________
block_2d_conv_1 (Conv2D)        (None, 128, 64, 64)  147456      block_2c_relu[0][0]              
__________________________________________________________________________________________________
block_2d_bn_1 (BatchNormalizati (None, 128, 64, 64)  512         block_2d_conv_1[0][0]            
__________________________________________________________________________________________________
block_2d_relu_1 (Activation)    (None, 128, 64, 64)  0           block_2d_bn_1[0][0]              
__________________________________________________________________________________________________
block_2d_conv_2 (Conv2D)        (None, 128, 64, 64)  147456      block_2d_relu_1[0][0]            
__________________________________________________________________________________________________
block_2d_conv_shortcut (Conv2D) (None, 128, 64, 64)  16384       block_2c_relu[0][0]              
__________________________________________________________________________________________________
block_2d_bn_2 (BatchNormalizati (None, 128, 64, 64)  512         block_2d_conv_2[0][0]            
__________________________________________________________________________________________________
block_2d_bn_shortcut (BatchNorm (None, 128, 64, 64)  512         block_2d_conv_shortcut[0][0]     
__________________________________________________________________________________________________
add_7 (Add)                     (None, 128, 64, 64)  0           block_2d_bn_2[0][0]              
                                                                 block_2d_bn_shortcut[0][0]       
__________________________________________________________________________________________________
block_2d_relu (Activation)      (None, 128, 64, 64)  0           add_7[0][0]                      
__________________________________________________________________________________________________
block_3a_conv_1 (Conv2D)        (None, 256, 32, 32)  294912      block_2d_relu[0][0]              
__________________________________________________________________________________________________
block_3a_bn_1 (BatchNormalizati (None, 256, 32, 32)  1024        block_3a_conv_1[0][0]            
__________________________________________________________________________________________________
block_3a_relu_1 (Activation)    (None, 256, 32, 32)  0           block_3a_bn_1[0][0]              
__________________________________________________________________________________________________
block_3a_conv_2 (Conv2D)        (None, 256, 32, 32)  589824      block_3a_relu_1[0][0]            
__________________________________________________________________________________________________
block_3a_conv_shortcut (Conv2D) (None, 256, 32, 32)  32768       block_2d_relu[0][0]              
__________________________________________________________________________________________________
block_3a_bn_2 (BatchNormalizati (None, 256, 32, 32)  1024        block_3a_conv_2[0][0]            
__________________________________________________________________________________________________
block_3a_bn_shortcut (BatchNorm (None, 256, 32, 32)  1024        block_3a_conv_shortcut[0][0]     
__________________________________________________________________________________________________
add_8 (Add)                     (None, 256, 32, 32)  0           block_3a_bn_2[0][0]              
                                                                 block_3a_bn_shortcut[0][0]       
__________________________________________________________________________________________________
block_3a_relu (Activation)      (None, 256, 32, 32)  0           add_8[0][0]                      
__________________________________________________________________________________________________
block_3b_conv_1 (Conv2D)        (None, 256, 32, 32)  589824      block_3a_relu[0][0]              
__________________________________________________________________________________________________
block_3b_bn_1 (BatchNormalizati (None, 256, 32, 32)  1024        block_3b_conv_1[0][0]            
__________________________________________________________________________________________________
block_3b_relu_1 (Activation)    (None, 256, 32, 32)  0           block_3b_bn_1[0][0]              
__________________________________________________________________________________________________
block_3b_conv_2 (Conv2D)        (None, 256, 32, 32)  589824      block_3b_relu_1[0][0]            
__________________________________________________________________________________________________
block_3b_conv_shortcut (Conv2D) (None, 256, 32, 32)  65536       block_3a_relu[0][0]              
__________________________________________________________________________________________________
block_3b_bn_2 (BatchNormalizati (None, 256, 32, 32)  1024        block_3b_conv_2[0][0]            
__________________________________________________________________________________________________
block_3b_bn_shortcut (BatchNorm (None, 256, 32, 32)  1024        block_3b_conv_shortcut[0][0]     
__________________________________________________________________________________________________
add_9 (Add)                     (None, 256, 32, 32)  0           block_3b_bn_2[0][0]              
                                                                 block_3b_bn_shortcut[0][0]       
__________________________________________________________________________________________________
block_3b_relu (Activation)      (None, 256, 32, 32)  0           add_9[0][0]                      
__________________________________________________________________________________________________
block_3c_conv_1 (Conv2D)        (None, 256, 32, 32)  589824      block_3b_relu[0][0]              
__________________________________________________________________________________________________
block_3c_bn_1 (BatchNormalizati (None, 256, 32, 32)  1024        block_3c_conv_1[0][0]            
__________________________________________________________________________________________________
block_3c_relu_1 (Activation)    (None, 256, 32, 32)  0           block_3c_bn_1[0][0]              
__________________________________________________________________________________________________
block_3c_conv_2 (Conv2D)        (None, 256, 32, 32)  589824      block_3c_relu_1[0][0]            
__________________________________________________________________________________________________
block_3c_conv_shortcut (Conv2D) (None, 256, 32, 32)  65536       block_3b_relu[0][0]              
__________________________________________________________________________________________________
block_3c_bn_2 (BatchNormalizati (None, 256, 32, 32)  1024        block_3c_conv_2[0][0]            
__________________________________________________________________________________________________
block_3c_bn_shortcut (BatchNorm (None, 256, 32, 32)  1024        block_3c_conv_shortcut[0][0]     
__________________________________________________________________________________________________
add_10 (Add)                    (None, 256, 32, 32)  0           block_3c_bn_2[0][0]              
                                                                 block_3c_bn_shortcut[0][0]       
__________________________________________________________________________________________________
block_3c_relu (Activation)      (None, 256, 32, 32)  0           add_10[0][0]                     
__________________________________________________________________________________________________
block_3d_conv_1 (Conv2D)        (None, 256, 32, 32)  589824      block_3c_relu[0][0]              
__________________________________________________________________________________________________
block_3d_bn_1 (BatchNormalizati (None, 256, 32, 32)  1024        block_3d_conv_1[0][0]            
__________________________________________________________________________________________________
block_3d_relu_1 (Activation)    (None, 256, 32, 32)  0           block_3d_bn_1[0][0]              
__________________________________________________________________________________________________
block_3d_conv_2 (Conv2D)        (None, 256, 32, 32)  589824      block_3d_relu_1[0][0]            
__________________________________________________________________________________________________
block_3d_conv_shortcut (Conv2D) (None, 256, 32, 32)  65536       block_3c_relu[0][0]              
__________________________________________________________________________________________________
block_3d_bn_2 (BatchNormalizati (None, 256, 32, 32)  1024        block_3d_conv_2[0][0]            
__________________________________________________________________________________________________
block_3d_bn_shortcut (BatchNorm (None, 256, 32, 32)  1024        block_3d_conv_shortcut[0][0]     
__________________________________________________________________________________________________
add_11 (Add)                    (None, 256, 32, 32)  0           block_3d_bn_2[0][0]              
                                                                 block_3d_bn_shortcut[0][0]       
__________________________________________________________________________________________________
block_3d_relu (Activation)      (None, 256, 32, 32)  0           add_11[0][0]                     
__________________________________________________________________________________________________
block_3e_conv_1 (Conv2D)        (None, 256, 32, 32)  589824      block_3d_relu[0][0]              
__________________________________________________________________________________________________
block_3e_bn_1 (BatchNormalizati (None, 256, 32, 32)  1024        block_3e_conv_1[0][0]            
__________________________________________________________________________________________________
block_3e_relu_1 (Activation)    (None, 256, 32, 32)  0           block_3e_bn_1[0][0]              
__________________________________________________________________________________________________
block_3e_conv_2 (Conv2D)        (None, 256, 32, 32)  589824      block_3e_relu_1[0][0]            
__________________________________________________________________________________________________
block_3e_conv_shortcut (Conv2D) (None, 256, 32, 32)  65536       block_3d_relu[0][0]              
__________________________________________________________________________________________________
block_3e_bn_2 (BatchNormalizati (None, 256, 32, 32)  1024        block_3e_conv_2[0][0]            
__________________________________________________________________________________________________
block_3e_bn_shortcut (BatchNorm (None, 256, 32, 32)  1024        block_3e_conv_shortcut[0][0]     
__________________________________________________________________________________________________
add_12 (Add)                    (None, 256, 32, 32)  0           block_3e_bn_2[0][0]              
                                                                 block_3e_bn_shortcut[0][0]       
__________________________________________________________________________________________________
block_3e_relu (Activation)      (None, 256, 32, 32)  0           add_12[0][0]                     
__________________________________________________________________________________________________
block_3f_conv_1 (Conv2D)        (None, 256, 32, 32)  589824      block_3e_relu[0][0]              
__________________________________________________________________________________________________
block_3f_bn_1 (BatchNormalizati (None, 256, 32, 32)  1024        block_3f_conv_1[0][0]            
__________________________________________________________________________________________________
block_3f_relu_1 (Activation)    (None, 256, 32, 32)  0           block_3f_bn_1[0][0]              
__________________________________________________________________________________________________
block_3f_conv_2 (Conv2D)        (None, 256, 32, 32)  589824      block_3f_relu_1[0][0]            
__________________________________________________________________________________________________
block_3f_conv_shortcut (Conv2D) (None, 256, 32, 32)  65536       block_3e_relu[0][0]              
__________________________________________________________________________________________________
block_3f_bn_2 (BatchNormalizati (None, 256, 32, 32)  1024        block_3f_conv_2[0][0]            
__________________________________________________________________________________________________
block_3f_bn_shortcut (BatchNorm (None, 256, 32, 32)  1024        block_3f_conv_shortcut[0][0]     
__________________________________________________________________________________________________
add_13 (Add)                    (None, 256, 32, 32)  0           block_3f_bn_2[0][0]              
                                                                 block_3f_bn_shortcut[0][0]       
__________________________________________________________________________________________________
block_3f_relu (Activation)      (None, 256, 32, 32)  0           add_13[0][0]                     
__________________________________________________________________________________________________
rpn_conv1 (Conv2D)              (None, 512, 32, 32)  1180160     block_3f_relu[0][0]              
__________________________________________________________________________________________________
rpn_out_class (Conv2D)          (None, 9, 32, 32)    4617        rpn_conv1[0][0]                  
__________________________________________________________________________________________________
rpn_out_regress (Conv2D)        (None, 36, 32, 32)   18468       rpn_conv1[0][0]                  
__________________________________________________________________________________________________
proposal_1 (Proposal)           (None, 2000, 4)      0           rpn_out_class[0][0]              
                                                                 rpn_out_regress[0][0]            
                                                                 input_image[0][0]                
__________________________________________________________________________________________________
input_gt_cls (InputLayer)       (None, None)         0                                            
…
